checkpoint/ConvNet_11.pth (torch, 264107 bytes, 10 tensors)

conv1.weight f4 [32, 1, 3, 3]
0.05391793 -0.42146647 -0.42547724 0.37899628 0.049513683 0.41448888 -0.4097943 0.25666723
0.12154032 -0.058825076 -0.35167688 -0.40284187 0.3044288 0.21868694 0.15328635 -0.018727263
0.21764828 0.40161756 0.14162906 -0.05592663 -0.29673097 -0.41040486 -0.25275612 -0.21591547
0.3827759 0.49005577 -0.012792052 0.2869453 0.3235681 -0.3557219 0.3498902 0.20255591
-0.14381467 -0.06252905 -0.33769253 -0.4930522 0.0021958256 -0.31990767 -0.36874986 0.1999314
-0.23194607 -0.03794801 0.32152268 0.39080602 0.3681966 0.31502318 -0.5693932 -0.32548317
0.32457718 -0.052840862 0.5418258 0.3772431 -0.32483658 -0.15567675 -0.046362273 0.0038360711
0.15713927 0.024060253 -0.07807802 -0.31465858 -0.1513005 0.47094938 -0.36579546 -0.08769071
-0.34168893 -0.24861231 -0.39196616 -0.552761 0.108524315 -0.1610216 -0.42203125 -0.053501386
-0.5164251 -0.34739783 -0.67985195 -0.16009359 0.24258745 -0.25819734 0.5680841 0.3676512
-0.075557634 -0.032252334 -0.22072646 -0.6240599 -0.05956769 -0.3681305 -0.13081393 0.06969973
-0.25482905 0.58918095 -0.5043397 -0.39562964 0.117101796 -0.2357052 0.2780369 0.27601027
0.41871467 0.02245217 0.3723511 -0.043552577 0.36467075 -0.72147954 0.4001619 0.008845079
-0.5109236 0.21738276 0.49534792 -0.09036294 -0.3352552 -0.3462677 -0.32910225 0.034826577
-0.60368025 0.17197116 -0.5699715 -0.44782642 0.3896276 -0.17509247 0.19672492 -0.4447969
-0.30066824 0.17456934 -0.12692513 -0.27552506 -0.15541722 -0.38215274 0.066733494 0.060323946
0.09803522 0.48759538 0.44652194 -0.10321744 -0.53490126 -0.060767602 -0.26191264 -0.44306758
0.054498006 -0.23778743 -0.25389066 -0.25124633 0.3889239 0.19135052 0.11981851 0.04015886
0.40641105 0.075394504 0.35380718 0.10541809 -0.3119746 0.13807411 0.46849856 -0.30199787
-0.061120927 0.02205843 0.034758665 -0.035281416 0.22751035 -0.4619251 0.012823418 0.41351333
0.20883848 0.10092998 -0.55282605 0.3095187 0.25364354 -0.14893556 0.060388874 -0.28803876
0.6674904 0.2643827 -1.0184432 -0.39136577 -0.37479743 0.39493814 -0.105281375 -0.45733395
0.12848504 -0.057313547 0.22180194 0.4057066 0.09053538 -0.14629348 0.35122135 -0.22324546
-0.33236498 0.08160462 -0.036841244 0.0464602 -0.20223743 0.0761389 -0.16446191 0.16387889
-0.36728072 -0.14805523 0.30105233 0.07931838 0.045065347 0.50991654 -0.16591747 0.6021097
0.14735195 -0.32180563 0.49989092 0.15002124 -0.07643867 -0.3013264 -0.6005534 0.4948012
-0.28983945 -0.19974288 -0.28537434 -0.412801 -0.25361824 -0.57291406 -0.066252716 0.0020408952
-0.09266071 0.0539546 0.28538084 -0.2151054 0.30157757 0.4889571 -0.6317953 -0.3601664
-0.5020184 -0.1799491 -0.016662963 -0.017681573 0.45326853 -0.3305996 -0.56938404 0.35464844
-0.5580975 -0.30540615 -0.11684114 0.3089423 0.5842666 -0.39525327 0.27088296 -0.24384075
-0.39281783 -0.4118501 0.13951907 0.5041232 0.05410777 -0.30279747 0.37556624 -0.027809134
0.14659336 0.40152904 -0.3408949 -0.6996013 -0.14068824 -0.5101783 -0.5006042 -0.27033466
00000000: 0cd9 5c3d 74ca d7be 27d8 d9be cd0b c23e
00000010: dcce 4a3d e337 d43e 8fd0 d1be e369 833e
00000020: 22ea f83d 90f2 70bd fe0e b4be 4a41 cebe
00000030: 17de 9b3e 78ef 5f3e 19f7 1c3e eb69 99bc
00000040: 31df 5e3e d1a0 cd3e 3507 113e 5213 65bd
00000050: 1fed 97be 9620 d2be 4069 81be f218 5dbe
00000060: 34fb c33e 97e8 fa3e c195 51bc 7fea 923e
00000070: b8aa a53e 2e21 b6be cf24 b33e d16a 4f3e
00000080: 2744 13be 3b0f 80bd 09e6 acbe 5771 fcbe
00000090: d7e7 0f3b f0ca a3be c8cc bcbe d1ba 4c3e
000000a0: 4583 6dbe 5f6f 1bbd 9f9e a43e ba17 c83e
000000b0: 4484 bc3e b84a a13e c1c3 11bf bba5 a6be
000000c0: fb2e a63e a96f 58bd 18b5 0a3f 0226 c13e
000000d0: fb50 a6be ba69 1fbe 5ee6 3dbd 9866 7b3b
000000e0: 1ee9 203e 021a c53c 5ee7 9fbd ee1a a1be
000000f0: 85ee 1abe 4720 f13e 8b49 bbbe 3097 b3bd
00000100: daf1 aebe 3a94 7ebe caaf c8be bf81 0dbf
00000110: ff41 de3d d9e2 24be 7b14 d8be 4524 5bbd
00000120: 6f34 04bf 21de b1be c70a 2ebf 93ef 23be
00000130: d868 783e 7132 84be f66d 113f c73c bc3e
00000140: f6bd 9abd 061b 04bd 1e06 62be 64c2 1fbf
00000150: 40fd 73bd 9a7b bcbe 16f4 05be bbbe 8e3d
00000160: f478 82be 90d4 163f 681c 01bf f88f cabe
00000170: 11d3 ef3d b45c 71be da5a 8e3e 3851 8d3e
00000180: c561 d63e 9ded b73c cea4 be3e 3064 32bd
00000190: 20b6 ba3e e2b2 38bf 05e2 cc3e f3ea 103c
000001a0: e4cb 02bf 9699 5e3e 3e9e fd3e 3510 b9bd
000001b0: 92a6 abbe 004a b1be 1780 a8be 50a6 0e3d
000001c0: ca8a 1abf 3519 303e a7e9 11bf 8149 e5be
000001d0: 457d c73e 714b 33be 4272 493e 6bbc e3be
000001e0: 30f1 99be 4ec2 323e a9f8 01be 9f11 8dbe
000001f0: b125 1fbe 86a9 c3be 92ab 883d 3e16 773d
00000200: b0c6 c83d 1aa6 f93e 869e e43e aa63 d3bd
00000210: 4aef 08bf 73e7 78bd 6a19 86be c1d9 e2be
00000220: 4d39 5f3d 8c7e 73be f5fd 81be 5ca3 80be
00000230: 0921 c73e 64f1 433e 6863 f53d 9e7d 243d
00000240: 1c15 d03e 6f68 9a3d 3726 b53e 71e5 d73d
00000250: 23bb 9fbe 4d63 0d3e 0bdf ef3e 779f 9abe
00000260: f059 7abd e1b3 b43c 1a5f 0e3d 3f83 10bd
00000270: 79f8 683e 7281 ecbe 5019 523c 05b8 d33e
00000280: c1d9 553e 61b4 ce3d 0286 0dbf 3c79 9e3e
00000290: 91dd 813e 9082 18be 535a 773d d179 93be
000002a0: a7e0 2a3f 2b5d 873e 595c 82bf 1861 c8be
000002b0: 73e5 bfbe 5535 ca3e c39d d7bd ad27 eabe
000002c0: 9591 033e 9cc1 6abd 0c20 633e c7b8 cf3e
000002d0: 9d6a b93d f5cd 15be 49d3 b33e 759a 64be
000002e0: be2b aabe 5320 a73d d8e6 16bd 0d4d 3e3d
000002f0: 5417 4fbe b6ee 9b3d b468 28be decf 273e
00000300: 380c bcbe ca9b 17be 8823 9a3e ad71 a23d
00000310: 7196 383d e489 023f 45e6 29be dc23 1a3f
00000320: 6ee3 163e b5c3 a4be b4f1 ff3e 2b9f 193e
00000330: e18b 9cbd 7447 9abe debd 19bf 9556 fd3e
00000340: d665 94be 6689 4cbe 961c 92be a75a d3be
00000350: 40da 81be 7faa 12bf 81af 87bd 8ac0 053b
00000360: e6c4 bdbd 80ff 5c3d 701d 923e 9744 5cbe
00000370: 6068 9a3e 9658 fa3e 56bd 21bf bb67 b8be
00000380: 4784 00bf 9444 38be c480 88bc f2d8 90bc
00000390: d012 e83e 5a44 a9be 27c3 11bf 7b94 b53e
000003a0: 7adf 0ebf 325e 9cbe 684a efbd af2d 9e3e
000003b0: 7f92 153f a35e cabe 2cb1 8a3e 64b1 79be
000003c0: 6b1f c9be 04de d2be 16de 0e3e 380e 013f
000003d0: 1ca0 5d3d 4508 9bbe 384a c03e fbcf e3bc
000003e0: 921c 163e 3795 cd3e c789 aebe 1219 33bf
000003f0: 9410 10be 0c9b 02bf 9927 00bf 4e69 8abe

conv1.bias f4 [32]
-0.036218725 -0.30154395 0.314514 0.3198182 -0.036503628 0.0017477716 0.2982374 -0.5594798
0.30526015 -0.0040934025 -0.23110066 -0.123886876 -0.40591624 0.030891277 -0.083818786 0.37259516
-0.2704942 -0.19410305 -0.007981839 0.21512698 0.41323942 -0.28715226 0.0150203295 -0.21694529
-0.06600161 0.111958414 0.0563871 0.10821169 -0.14381191 0.15954284 0.08376582 0.25605804
00000000: 165a 14bd f863 9abe fb07 a13e 36bf a33e
00000010: d484 15bd 7c15 e53a 93b2 983e 113a 0fbf
00000020: 0f4b 9c3e f321 86bb a7a5 6cbe 67b8 fdbd
00000030: 41d4 cfbe b40f fd3c 2fa9 abbd cbc4 be3e
00000040: 377e 8abe f3c2 46be 42c6 02bc 3f4a 5c3e
00000050: 1e94 d33e 9f05 93be d417 763c e826 5ebe
00000060: da2b 87bd 744a e53d 29f6 663d 179e dd3d
00000070: 6e43 13be 335f 233e 6a8d ab3d 0a1a 833e

conv2.weight f4 [32, 32, 3, 3]
-0.011481822 -0.2045031 -0.26589248 0.53335845 0.24461557 0.30005082 0.534202 0.32031628
-0.18022528 0.026031358 -0.041023567 -0.08354583 0.12030335 0.1075892 0.061820097 -0.2405701
0.025895385 -0.19355096 0.07122674 0.21789579 0.110335164 -0.18179196 -0.42391098 -0.4281986
-0.109445415 -0.13063651 0.1645179 -0.0632718 -0.19541118 -0.2702489 0.20803757 0.0912467
0.11453007 -0.15686098 -0.18169971 -0.20321071 0.011108009 0.026885929 -0.108516306 -0.09355
-0.08646862 -0.10851054 -0.38186127 -0.13706718 -0.102287 0.25943494 0.11529525 0.058430117
0.3259005 0.2988948 0.15645778 0.048547823 -0.0142017845 -0.16349424 -0.0029205827 0.09416282
-0.1762022 -0.023108961 -0.07752945 -0.095607884 -0.0069890525 -0.12810254 0.037047386 -0.7683654
-0.41199896 -0.17641012 -0.06946611 -0.20058899 -0.09906022 0.08782237 -0.08841703 -0.3528763
-0.16117813 -0.047276147 0.022050895 -0.06896237 0.114689685 0.09223064 -0.021459822 0.02636227
0.22100438 -0.08083817 0.059240572 -0.072890356 -0.041216943 0.3856693 -0.22291346 0.08007783
0.059171297 -0.21495071 0.042582788 -0.20953831 0.005940534 -0.18186913 -0.029278105 -0.031276114
-0.49047518 -0.26138958 -0.15696375 0.4833181 -0.2490662 -0.42933717 0.039753027 -0.12622909
-0.11787921 0.36634153 -0.24194172 0.15424371 -0.81750965 -0.7781609 -0.58422047 0.05319148
0.1352792 0.21992347 0.119959526 -0.062038977 -0.54915357 -0.01485671 0.2083898 -0.5258456
0.21172102 0.20482521 0.03998134 0.08600174 -0.01171963 -0.117625505 0.014660416 -0.26929873
-0.11451709 0.16659105 0.23143865 0.27836135 0.14517704 0.045819126 -0.029026119 -0.08063981
-0.096274026 -0.09180738 -0.012205322 0.03871187 0.0040885387 -0.13699032 -0.008747761 -0.004434911
0.043926693 0.07636139 0.39526194 -0.095631234 -0.120939635 0.15200981 -0.20494348 -0.262116
0.041661523 0.03954183 -0.0044885506 0.06302004 -0.22590274 -0.25175953 0.07683127 -0.44428396
-0.04114381 0.05405942 -0.13194582 0.21255393 -0.19062153 -0.40697014 0.17378947 -1.0961692
-0.04270703 -0.4546983 0.17051975 0.23178798 -0.023348868 0.005222221 0.054920826 0.026596373
0.17323571 0.06628164 0.22649007 0.09308189 -0.051213372 0.060183186 0.05356897 0.045660805
0.08074254 -0.00510719 0.0147183025 -0.0064543257 0.01086947 0.13605852 -0.014657933 0.006539526
0.21783522 0.122456804 -0.048549253 0.031729266 0.19733398 0.08617446 -0.064557254 -0.005515786
-0.26633644 0.14642793 0.1441314 0.045560937 0.10042741 0.0092571825 -0.11426892 -0.20034525
-0.2351331 -0.35927194 0.19798605 0.0023765338 -0.04669698 0.030964812 -0.047533877 -0.25343788
0.0007783529 -0.23031422 -1.0358531 0.26110557 0.058173746 0.02275172 0.27315086 0.08027835
-0.17808628 -0.10641628 0.11955355 0.07629461 -0.014820604 0.024566745 -0.3377496 0.025794886
-0.12609644 -0.07984075 0.17745759 0.0004036867 -0.30919552 0.112512365 0.13596322 -0.05336482
0.29706326 0.13929728 0.01807555 0.025905017 0.050555233 -0.021377858 0.38894555 0.16944039
0.09103125 -0.08604924 -0.312927 -0.13539396 -0.6294037 0.07490547 -0.12874946 -0.34122863
00000000: 401e 3cbc 4369 51be 0f23 88be 2e8a 083f
00000010: 817c 7a3e 43a0 993e 76c1 083f 7f00 a43e
00000020: fa8c 38be b73f d53c 5408 28bd 131a abbd
00000030: 9a61 f63d ba57 dc3d 1237 7d3d 0258 76be
00000040: 8f22 d43c 3932 46be 53df 913d 1320 5f3e
00000050: 67f7 e13d ac27 3abe dc0a d9be d93c dbbe
00000060: eb24 e0bd 94c5 05be 6177 283e a594 81bd
00000070: de19 48be 105e 8abe cd07 553e 8ddf ba3d
00000080: be8e ea3d 2aa0 20be 7d0f 3abe 7816 50be
00000090: 5efe 353c e13f dc3c cc3d debd 2497 bfbd
000000a0: 7616 b1bd c63a debd 5283 c3be 575b 0cbe
000000b0: d97b d1bd a8d4 843e eb1f ec3d 6b54 6f3d
000000c0: 6edc a63e bd08 993e 7836 203e 15da 463d
000000d0: 9aae 68bc 096b 27be 3f67 3fbb 70d8 c03d
000000e0: 596e 34be 014f bdbc c3c7 9ebd 11ce c3bd
000000f0: 6c04 e5bb 502d 03be 00bf 173d 98b3 44bf
00000100: 87f1 d2be dba4 34be 3f44 8ebd 3367 4dbe
00000110: 16e0 cabd 37dc b33d fd13 b5bd 34ac b4be
00000120: e10b 25be a2a4 41bd 14a4 b43c 253c 8dbd
00000130: 6de2 ea3d 6be3 bc3d 82cc afbc b0f5 d73c
00000140: f94e 623e 7c8e a5bd 3ea6 723d 8a47 95bd
00000150: 19d3 28bd 7276 c53e 6d43 64be d8ff a33d
00000160: 9a5d 723d 0a1c 5cbe 4a6b 2e3d 3691 56be
00000170: d0a8 c23b e73b 3abe a3d8 efbc 621b 00bd
00000180: 901f fbbe dbd4 85be 1bbb 20be 7875 f73e
00000190: 360b 7fbe 15d2 dbbe 12d4 223d 3342 01be
000001a0: a86a f1bd 1e91 bb3e 92bf 77be 10f2 1d3e
000001b0: 5048 51bf 8e35 47bf 798f 15bf 4fdf 593d
000001c0: a186 0a3e 9e33 613e 57ad f53d 951c 7ebd
000001d0: 5495 0cbf 8f69 73bc 2364 553e d19d 06bf
000001e0: 65cd 583e b3bd 513e 79c3 233d ae21 b03d
000001f0: b103 40bc a4e5 f0bd 3e32 703c 86e1 89be
00000200: f087 eabd d896 2a3e 41fe 6c3e 6185 8e3e
00000210: 4aa9 143e d6ac 3b3d 2fc8 edbc 7c26 a5bd
00000220: 512b c5bd 8205 bcbd d5f8 47bc 5690 1e3d
00000230: 26f9 853b 3147 0cbe c552 0fbc bb52 91bb
00000240: 7aec 333d 5c63 9c3d c65f ca3e 4fda c3bd
00000250: 33af f7bd 76a8 1b3e b4dc 51be 1134 86be
00000260: 46a5 2a3d 9df6 213d b114 93bb a710 813d
00000270: 0c53 67be a0e6 80be b659 9d3d 3079 e3be
00000280: 6986 28bd 696d 5d3d ce1c 07be bda7 593e
00000290: 4a32 43be 645e d0be def5 313e 464f 8cbf
000002a0: 91ed 2ebd 37ce e8be bb9c 2e3e d459 6d3e
000002b0: 2046 bfbc 2a1f ab3b a9f4 603d a3e0 d93c
000002c0: b464 313e abbe 873d 03ed 673e b8a1 be3d
000002d0: 1dc5 51bd a582 763d 236b 5b3d d306 3b3d
000002e0: 585c a53d 375a a7bb 0925 713c cf7e d3bb
000002f0: dd15 323c ed52 0b3e d427 70bc 8549 d63b
00000300: 3210 5f3e a2ca fa3d 95db 46bd 8cf6 013d
00000310: eb11 4a3e 3c7c b03d 9836 84bd c4bd b4bb
00000320: 405d 88be 34f1 153e 2f97 133e 1b9e 3a3d
00000330: e3ac cd3d 70ab 173c d305 eabd 4e27 4dbe
00000340: bbc6 70be 7ef2 b7be dbbc 4a3e 9fbf 1b3b
00000350: 5545 3fbd eba9 fd3c e2b2 42bd 9cc2 81be
00000360: 610a 4c3a 7ed7 6bbe d696 84bf a1af 853e
00000370: 9847 6e3d d161 ba3c 6eda 8b3e fa68 a43d
00000380: 405c 36be c7f0 d9bd 7ed8 f43d 5940 9c3d
00000390: 1ed2 72bc 3340 c93c 84ed acbe cc4f d33c
000003a0: 6d1f 01be 8c83 a3bd 71b7 353e e9a5 d339
000003b0: e04e 9ebe e26c e63d f139 0b3e 1295 5abd
000003c0: ad18 983e f2a3 0e3e 2d13 943c c236 d43c
000003d0: 0113 4f3d 9e20 afbc df23 c73e c881 2d3e
000003e0: 986e ba3d 953a b0bd f837 a0be b7a4 0abe
000003f0: 9a20 21bf 0a68 993d e6d6 03be 85b5 aebe

conv2.bias f4 [32]
0.011383261 0.0030060054 -0.025034068 -0.028609598 -0.055230513 0.19813073 -0.12630098 -0.055973157
0.02175966 -0.037452158 -0.05265228 0.051002745 0.075616226 -0.027242037 -0.029509693 0.01875795
-0.1304874 -0.039361473 0.049422354 -0.04084564 -0.09700203 0.036262173 0.069445364 -0.01181336
0.068238325 -0.028951354 0.16932076 -0.08431167 -0.017440487 0.1974847 0.034690976 -0.12233233
00000000: db80 3a3c 6700 453b 3f14 cdbc ad5e eabc
00000010: 6439 62bd c8e2 4a3e 0b55 01be 1c44 65bd
00000020: 5141 b23c 6f67 19bd eba9 57bd 41e8 503d
00000030: aedc 9a3d b12a dfbc 50be f1bc 46aa 993c
00000040: 7d9e 05be 7f39 21bd 186f 4a3d c24d 27bd
00000050: 00a9 c6bd a587 143d 5f39 8e3d d38c 41bc
00000060: 89c0 8b3d 642b edbc 6c62 2d3e 99ab acbd
00000070: 5adf 8ebc 6e39 4a3e 2018 0e3d 5f89 fabd

conv3.weight f4 [64, 32, 3, 3]
-0.07538062 0.055610295 0.17521043 0.120366715 0.116407424 0.25299108 0.2757945 0.24521151
0.1709076 -0.1539401 -0.09012157 0.024045942 0.06033298 -0.06014899 -0.16467087 0.017657604
-0.060984183 -0.07393375 0.025477393 0.0005506558 0.040022567 0.0470241 0.019297129 -0.010127399
-0.03278016 0.06253246 0.049777523 -0.076596335 0.10457865 -0.10616297 0.012594468 0.19259118
-0.011476616 -0.028550202 0.13351081 -0.10178826 0.2300746 0.16280404 -1.4407113 0.31124234
0.27315447 -1.429846 0.2670861 0.31665507 -0.85944533 -0.26342535 -0.23560986 -0.17108203
-0.032134388 -0.37999433 -0.65919834 -0.29143372 -0.22676982 -0.91135305 0.061487127 -0.3261749
0.017062634 -0.027163433 -0.41009226 -0.04859723 0.14081056 -0.4972925 0.13985954 -0.140669
-0.07227593 -0.1169373 -0.14016953 0.091156416 0.055598885 0.081709646 0.09133196 -0.03151808
-0.07188485 0.1481103 -0.09439308 -0.54164106 -0.1459404 -0.38745165 -0.20298682 0.024982164
-0.02400178 0.36442918 0.17445725 0.14884084 0.15854597 -0.0139458 0.11114316 0.1470845
-0.23806809 -0.03584191 -0.47956464 -0.6605585 0.13541184 -0.0067844335 -0.11711932 -0.22067818
0.18128034 0.24610454 -0.024881044 0.25163323 0.13958395 0.24316768 0.06251223 0.216841
0.15486345 0.17640893 0.101385914 -0.069209635 0.41022477 -0.5215446 -0.4449269 -0.49320155
-0.6021083 -0.88618237 -0.45534453 -0.8292548 -0.9734879 -0.22108155 0.016570397 0.009998302
0.034045544 0.31262383 0.33927262 0.43619972 0.3841531 0.72132754 0.047904838 0.0045676087
-0.08010885 0.0007432413 0.115425505 0.021182323 -0.07838202 -0.12963834 -0.1321299 0.10348344
-0.0429726 0.068506464 0.5706267 0.14806171 0.044696514 0.68106395 -0.25117442 -0.25532418
-0.1981949 0.09764716 0.3409942 -0.3678904 0.16035579 0.18648165 -0.47860512 0.06680161
0.1574821 0.04819116 -0.10270956 -0.5196905 0.3249973 0.25247055 -0.1205916 -0.18653804
-0.2887696 -0.44862133 0.12282038 0.16165446 -0.12924215 0.08118247 0.21570683 0.08394777
0.011593996 0.070477135 -0.11133205 -0.031486385 0.113058604 0.11220158 0.21477227 0.23114643
0.27290872 0.10871206 0.19469495 0.23447283 0.30350074 0.24548611 -0.019955814 0.17300105
0.0959374 -0.16280982 -0.24576272 -0.32198763 -0.3733307 0.086463496 0.12379754 -0.02165566
0.055051934 0.01582305 -0.042543706 -0.022770792 -0.12140241 -0.20893964 -0.07888502 -0.08242958
-0.10242652 -0.040905826 0.041802905 -0.016971739 -0.2751058 -0.100356296 -0.01738366 -0.2635001
-0.3483124 -0.49045303 0.17222281 -0.1217446 -0.32267928 0.1336978 -0.2908679 -0.93505985
-0.08472813 0.04131379 0.31761676 0.026184296 -0.06716098 -0.014490292 0.04242232 -0.2189854
-0.37425634 -0.027559992 -0.0063730185 0.040933993 -0.006509715 0.02723222 0.03170348 0.037436873
0.03030501 0.02512507 -0.28045407 0.019565735 0.09776037 -0.36539337 0.050638285 -0.01998338
-0.40836284 -0.071554355 -0.22407527 -0.07616421 0.26685923 0.1908957 -0.15075354 0.14011225
0.057688676 0.13992076 0.10247581 -0.061080616 -0.41512275 -0.13534304 0.007985609 -0.5199988
00000000: 2861 9abd 9fc7 633d 5d6a 333e d382 f63d
00000010: 0467 ee3d 0c88 813e f034 8d3e ba18 7b3e
00000020: 6702 2f3e 79a2 1dbe a891 b8bd fffb c43c
00000030: b71f 773d ca5e 76bd 7b9f 28be aea6 903c
00000040: 8dca 79bd 946a 97bd f7b5 d03c e359 103a
00000050: b4ee 233d 589c 403d 0315 9e3c 64ed 25bc
00000060: 7d44 06bd 0511 803d 84e3 4b3d 8ade 9cbd
00000070: 552d d63d f96b d9bd 0759 4e3c 9f36 453e
00000080: 6b08 3cbc 1de2 e9bc 0fb7 083e 5d76 d0bd
00000090: ad98 6b3e 1ab6 263e 3a69 b8bf 285b 9f3e
000000a0: e7da 8b3e 3205 b7bf 82bf 883e 9d20 a23e
000000b0: 9c04 5cbf b0df 86be b643 71be 2130 2fbe
000000c0: 599f 03bd 9e8e c2be 39c1 28bf cd36 95be
000000d0: 5936 68be 6f4e 69bf edd9 7b3d 6600 a7be
000000e0: f0c6 8b3c d985 debc 9df7 d1be e40d 47bd
000000f0: a530 103e 1f9d febe 5737 0f3e 890b 10be
00000100: 6705 94bd d37c efbd 9a88 0fbe 37b0 ba3d
00000110: a8bb 633d 6357 a73d 400c bb3d 1a19 01bd
00000120: 5d38 93bd 3aaa 173e 2951 c1bd fda8 0abf
00000130: 6671 15be 1060 c6be c7db 4fbe 65a7 cc3c
00000140: 629f c4bc 7696 ba3e eca4 323e bc69 183e
00000150: e059 223e ed7c 64bc 069f e33d 529d 163e
00000160: 1fc8 73be f7ce 12bd 7f89 f5be 5d1a 29bf
00000170: 67a9 0a3e f44f debb 41dc efbd 76f9 61be
00000180: 8ea1 393e d402 7c3e 55d3 cbbc 12d6 803e
00000190: 18ef 0e3e f300 793e 6906 803d 910b 5e3e
000001a0: 8694 1e3e 8ba4 343e 6ba3 cf3d c8bd 8dbd
000001b0: fb08 d23e f283 05bf 75cd e3be ea84 fcbe
000001c0: c523 1abf d9dc 62bf eb22 e9be 0b4a 54bf
000001d0: 8136 79bf 3463 62be a4be 873c ebcf 233c
000001e0: 5773 0b3d 3b10 a03e 24b5 ad3e 9255 df3e
000001f0: b7af c43e eca8 383f dd37 443d e1ab 953b
00000200: 1c10 a4bd 14d6 423a 3564 ec3d 8d86 ad3c
00000210: c186 a0bd eabf 04be 0f4d 07be 20ef d33d
00000220: 0904 30bd 1e4d 8c3d 9714 123f 7d9d 173e
00000230: b113 373d 355a 2e3f ef99 80be dab9 82be
00000240: 9bf3 4abe 3cfb c73d cb96 ae3e 215c bcbe
00000250: 4f34 243e 0cf5 3e3e bb0b f5be 48cf 883d
00000260: fd42 213e 1864 453d 6459 d2bd 700a 05bf
00000270: 0c66 a63e d243 813e bbf8 f6bd d403 3fbe
00000280: 9cd9 93be b2b1 e5be 4089 fb3d bf88 253e
00000290: 0e58 04be ff42 a63d 40e2 5c3e cfec ab3d
000002a0: bef4 3d3c 5156 903d 0f02 e4bd def7 00bd
000002b0: 458b e73d f1c9 e53d 43ed 5b3e a6b1 6c3e
000002c0: b1ba 8b3e 6ea4 de3d 1d5e 473e a519 703e
000002d0: 7364 9b3e b660 7b3e 607a a3bc 3027 313e
000002e0: d47a c43d 9eb7 26be 39a9 7bbe 90db a4be
000002f0: 3425 bfbe c613 b13d 9189 fd3d 3667 b1bc
00000300: 237e 613d 579f 813c 4f42 2ebd d089 babc
00000310: d4a1 f8bd 46f4 55be 788e a1bd d7d0 a8bd
00000320: ffc4 d1bd de8c 27bd 8639 2b3d 5108 8bbc
00000330: abda 8cbe 9a87 cdbd 2d68 8ebc 7ce9 86be
00000340: 0156 b2be a91c fbbe 2d5b 303e 3c55 f9bd
00000350: 3836 a5be 13e8 083e a3ec 94be 1560 6fbf
00000360: f185 adbd a638 293d aa9e a23e 7380 d63c
00000370: b28b 89bd b168 6dbc 07c3 2d3d b53d 60be
00000380: 879e bfbe 7ec5 e1bc c1d4 d0bb 67aa 273d
00000390: 734f d5bb 1b16 df3c 82db 013d 6857 193d
000003a0: 3642 f83c 17d3 cd3c ad97 8fbe 5248 a03c
000003b0: 9736 c83d d714 bbbe 176a 4f3d 2fb4 a3bc
000003c0: ef14 d1be 178b 92bd fd73 65be fbfb 9bbd
000003d0: c6a1 883e 2a7a 433e 235f 1abe 9679 0f3e
000003e0: f64a 6c3d 6347 0f3e d6de d13d ab2f 7abd
000003f0: f88a d4be 5e97 0abe 12d6 023c a41e 05bf

conv3.bias f4 [64]
-0.022826707 0.019185975 0.011667598 -0.0084821135 -0.20481217 -0.0025393837 0.002521957 -0.00027207512
-0.10722294 0.22715385 -0.12410001 -0.14820182 0.013271152 -0.14269376 -0.14525938 -0.03923957
-0.013475055 -0.12149397 -0.09946661 -0.093382254 -0.029712476 -0.023366876 -0.007996664 -0.0075631607
-0.18091726 -0.1239551 -0.009370169 -0.101977915 -0.02584411 -0.07043722 -0.00066834834 -0.048611812
-0.03330464 -0.12809303 -0.0773406 -0.13501447 0.047614094 -0.09109414 -0.07405976 -0.003691728
-0.07871906 0.0904723 -0.15730077 -0.09459273 -0.028965339 -0.05636033 -0.06750221 0.10176867
-0.076413244 -0.004591949 0.019784322 -0.000528908 -0.093553 -0.08450948 -0.14673525 -0.010161328
0.094649285 -0.0047449907 -0.029012572 -0.02540468 0.15236881 -0.13492166 -0.0810366 -0.048509285
00000000: 13ff babc e82b 9d3c 7429 3f3c 90f8 0abc
00000010: 48ba 51be ca6b 26bb 6b47 253b 4ea5 8eb9
00000020: b397 dbbd 059b 683e 2528 febd 38c2 17be
00000030: 3f6f 593c 501e 12be e0be 14be acb9 20bd
00000040: 7ac6 5cbc d5d1 f8bd 26b5 cbbd 323f bfbd
00000050: 9467 f3bc e46b bfbc 7104 03bc 64d4 f7bb
00000060: 6042 39be 2cdc fdbd 5685 19bc ccd9 d0bd
00000070: 07b7 d3bc 6441 90bd 1934 2fba 2e1d 47bd
00000080: 726a 08bd d22a 03be c064 9ebd 3c41 0abe
00000090: ff06 433d 918f babd a5ac 97bd ebf0 71bb
000000a0: 7537 a1bd 8b49 b93d 7413 21be d5b9 c1bd
000000b0: b848 edbc 17da 66bd 993e 8abd 186c d03d
000000c0: 8c7e 9cbd 0f78 96bb bb12 a23c 6aa6 0aba
000000d0: b798 bfbd 4e13 adbd c441 16be b37b 26bc
000000e0: 7cd7 c13d de7b 9bbb c6ab edbc 7a1d d0bc
000000f0: 9206 1c3e e728 0abe 84f6 a5bd acb1 46bd

conv4.weight f4 [64, 64, 3, 3]
-0.041814227 -0.14846823 -0.14928645 -0.016342828 -0.15710065 -0.11805767 -0.015998421 -0.067699164
0.020233918 0.068660825 -0.02057925 -0.04926924 0.04676127 0.015255731 0.05794736 -0.0045160786
-0.01000376 0.07989465 0.24439232 0.100259066 0.039062973 0.16811594 0.045319073 0.03923663
0.12712911 0.01717379 0.022795778 -0.046058122 -0.1544936 -0.33783323 -0.041550074 -0.12374358
-0.28448376 -0.13262418 -0.09035303 -0.24383716 0.06710865 -0.07442521 -0.005105644 0.070648134
-0.011942121 0.05568003 0.046786774 0.0032878704 -0.02153788 -0.04979758 0.075467065 0.10079699
-0.083337866 0.01488622 -0.034379523 -0.014962492 0.080247045 0.100226045 0.10981537 0.061144393
-0.0058895815 0.0819099 0.043078993 -0.016321478 0.034554332 0.013309251 0.013612537 0.042576194
-0.039301705 0.036812633 0.04425472 -0.00018507017 -0.040942203 0.14166458 0.054238524 0.016692642
0.0009974051 -0.06127724 0.020104887 -0.05387439 0.005691044 0.0055134986 -0.052947648 0.014424642
-0.0057631996 0.10484406 0.123029016 0.1875411 0.080752954 0.12032167 0.13363075 -0.012160666
0.02266713 0.031057442 0.19520164 0.20141105 0.21977293 0.13527091 0.11537349 0.21612349
0.12953739 0.032188818 0.09534412 0.0043325154 -0.013134464 -0.04802803 -0.05623169 0.008736665
-0.05754239 -0.011351505 0.12695627 0.10513645 -0.048362367 -0.07925189 -0.44290692 0.04095013
0.05632106 -0.31085837 0.060301494 0.010272762 -0.33866322 -0.071772985 -0.18842399 -0.012826395
-0.2234812 -0.1784704 0.011594363 -0.37059993 -0.22237554 -0.011639151 0.0679518 0.059572797
0.044555455 0.0071970746 0.06533236 0.024193361 0.24625662 0.21204935 0.17279679 -0.1502803
-0.10728274 -0.19649795 -0.24239947 -0.15240543 -0.20450602 -0.30099782 -0.4848889 -0.19706444
0.137014 0.12223822 -0.13771483 0.1816724 0.12253406 -0.11952439 0.14843756 0.069714144
-0.1736549 0.21223131 0.14273801 0.16266786 0.30463836 0.25733227 0.13898014 0.3526642
0.24241768 0.12982617 0.12056606 0.16089067 0.32472825 0.16899341 0.23929928 0.17829885
-0.046484582 0.02558286 0.19073454 -0.036403965 -0.0961145 -0.066030964 0.053891692 0.0028017596
-0.045476414 0.069344535 0.070827 0.051167574 0.0069775884 0.0069580544 -0.087100334 -0.027228601
-0.070442185 -0.07643836 -0.06653334 -0.049007043 -0.064818464 0.15674052 0.14728704 0.3163525
0.17481533 0.19753712 0.20989133 -0.08535785 -0.036767714 0.12407906 -0.026570063 0.0050972304
-0.08251131 0.008497948 0.007176674 0.088960186 -0.1232389 -0.07479337 0.11334878 0.09888384
0.155646 0.29159603 0.020742944 0.17567433 0.11562433 0.040179666 0.16245161 0.1353958
0.17967129 0.08295738 0.020842992 0.14701173 0.14492099 0.04637972 0.17773719 0.045824017
0.033391513 0.014625095 0.019638345 0.053131547 -0.014030787 -0.0590125 0.029189764 -0.08571085
-0.017073968 0.054979626 0.1309855 0.13663042 0.18952735 0.070225336 0.11930332 0.15449679
-0.1174255 0.048189268 0.063404605 -0.048616834 -0.11615478 -0.11050172 -0.014122177 -0.054859318
0.017399257 0.13199703 0.12927519 0.14831291 0.17217827 0.20169784 0.28259656 0.025887944
00000000: 6545 2bbd 0e08 18be 8cde 18be 65e1 85bc
00000010: fede 20be 38c8 f1bd 1f0f 83bc dca5 8abd
00000020: 9ac1 a53c 0c9e 8c3d d195 a8bc 8bce 49bd
00000030: bf88 3f3d 2cf3 793c 365a 6d3d 9dfb 93bb
00000040: d0e6 23bc ce9f a33d fb41 7a3e a054 cd3d
00000050: 7f00 203d 9626 2c3e 7ea0 393d 97b6 203d
00000060: 222e 023e 0cb0 8c3c 36be ba3c 71a7 3cbd
00000070: 9233 1ebe 7af8 acbe 6930 2abd 466d fdbd
00000080: dba7 91be a2ce 07be 020b b9bd 73b0 79be
00000090: 4370 893d 3f6c 98bd 3f4d a7bb f8af 903d
000000a0: e3a8 43bc be10 643d 7da3 3f3d 5079 573b
000000b0: 3570 b0bc 8cf8 4bbd 7a8e 9a3d a76e ce3d
000000c0: 0bad aabd 55e5 733c 8bd1 0cbd 3d25 75bc
000000d0: 9058 a43d 5043 cd3d e1e6 e03d 8b72 7a3d
000000e0: 64fd c0bb 61c0 a73d 9973 303d 9fb4 85bc
000000f0: d888 0d3d 0b0f 5a3c 1e07 5f3c 6064 2e3d
00000100: d3fa 20bd d8c8 163d 7044 353d 650f 42b9
00000110: 03b3 27bd 8510 113e 3729 5e3d 02bf 883c
00000120: 5dbb 823a d8fd 7abd 01b3 a43c 64ab 5cbd
00000130: f07b ba3b 94aa b43b a2df 58bd 5555 6c3c
00000140: 39d9 bcbb 7cb8 d63d a3f6 fb3d c60a 403e
00000150: ce61 a53d 356b f63d 80d6 083e 883d 47bc
00000160: 6bb0 b93c 2d6c fe3c f0e2 473e b33e 4e3e
00000170: 280c 613e 7584 0a3e f048 ec3d 7a4f 5d3e
00000180: 73a5 043e 6cd8 033d c743 c33d c6f7 8d3b
00000190: ef31 57bc 0ab9 44bd 3353 66bd 3b24 0f3c
000001a0: 92b1 6bbd aafb 39bc d300 023e c751 d73d
000001b0: 9e17 46bd d14e a2bd b2c4 e2be 53bb 273d
000001c0: e9b0 663d d428 9fbe b3fe 763d 164f 283c
000001d0: 4465 adbe b7fd 92bd 38f2 40be cd25 52bc
000001e0: 41d8 64be f2c0 36be 48f6 3d3c 46bf bdbe
000001f0: 6ab6 63be 23b2 3ebc 502a 8b3d 9b02 743d
00000200: c87f 363d 70d5 eb3b f9cc 853d 2831 c63c
00000210: b22a 7c3e 7723 593e a4f1 303e 14e3 19be
00000220: 0eb7 dbbd c236 49be 9137 78be 2b10 1cbe
00000230: 076a 51be 631c 9abe 5c43 f8be 43cb 49be
00000240: 664d 0c3e 0858 fa3d 1e05 0dbe 5408 3a3e
00000250: 23f3 fa3d 34c9 f4bd 0400 183e 4ac6 8e3d
00000260: 97d2 31be 2a53 593e ea29 123e 6792 263e
00000270: 8ff9 9b3e 0ec1 833e cf50 0e3e 6790 b43e
00000280: 573c 783e 27f1 043e 57eb f63d 86c0 243e
00000290: c842 a63e 9c0c 2d3e df0a 753e f993 363e
000002a0: 9e66 3ebd 2593 d13c ea4f 433e 531c 15bd
000002b0: aed7 c4bd 3e3b 87bd 89bd 5c3d ba9d 373b
000002c0: 7a45 3abd 8204 8e3d bf0d 913d 1795 513d
000002d0: 41a4 e43b 6400 e43b a961 b2bd 840e dfbc
000002e0: fe43 90bd b78b 9cbd a242 88bd 9cbb 48bd
000002f0: 8bbf 84bd 9680 203e 6ad2 163e f4f8 a13e
00000300: ca02 333e 2c47 4a3e c1ed 563e 19d0 aebd
00000310: be99 16bd 2a1d fe3d 76a9 d9bc ab06 a73b
00000320: b1fb a8bd fa3a 0b3c 4e2a eb3b c230 b63d
00000330: ad64 fcbd 442d 99bd 6823 e83d 9c83 ca3d
00000340: aa61 1f3e 134c 953e 1bed a93c f9e3 333e
00000350: 73cc ec3d 6f93 243d b759 263e 32a5 0a3e
00000360: c0fb 373e 8fe5 a93d ecbe aa3c 3e8a 163e
00000370: 2b66 143e a9f8 3d3d bd00 363e f7b1 3b3d
00000380: 8ac5 083d 189e 6f3c 98e0 a03c 77a0 593d
00000390: 63e1 65bc 17b7 71bd 5f1f ef3c 2c89 afbd
000003a0: b5de 8bbc 5132 613d 1021 063e d8e8 0b3e
000003b0: 7513 423e 4dd2 8f3d 4d55 f43d 6834 1e3e
000003c0: c87c f0bd 1c62 453d 46da 813d 7222 47bd
000003d0: 8fe2 edbd ba4e e2bd b460 67bc 2ab4 60bd
000003e0: e388 8e3c 3b2a 073e b760 043e 57df 173e
000003f0: 804f 303e e189 4e3e 7fb0 903e f412 d43c

conv4.bias f4 [64]
0.00096777116 0.025458673 -0.055884775 0.019561313 -0.013101056 -0.02529057 -0.061339423 0.020742938
-0.050446186 -0.020044435 0.014808658 0.019267693 0.03871254 -0.0011116411 -0.029274954 0.010648219
-0.011232861 0.0090134395 -0.087448865 0.005906436 -0.04555387 -0.06271819 0.06871544 0.004671822
-0.0055004302 0.08975125 -0.011508172 0.021668954 -0.02216047 0.03632302 -0.0109705785 -0.031886477
-0.012701951 -0.03616385 0.07314208 -0.011723744 0.06864982 0.038832806 -0.061334923 0.031143893
-0.008986051 -0.020385258 -0.008850006 0.083256744 0.10694568 -0.0001655592 0.08169612 0.06837224
0.03446767 0.007697782 -0.0023142814 0.0026670897 -0.0034146425 0.010378483 -0.06689812 -0.08945471
0.04422477 -0.005889967 -0.07595495 -6.95495e-05 0.030983202 -0.0033066585 0.06634454 0.010318034
00000000: 06b2 7d3a b58e d03c 6fe7 64bd 0c3f a03c
00000010: d0a5 56bc 2b2e cfbc 0c3f 7bbd 18ed a93c
00000020: a9a0 4ebd 3a34 a4bc 03a0 723c 48d7 9d3c
00000030: 0a91 1e3d 7cb4 91ba 07d2 efbc de75 2e3c
00000040: 090a 38bc 1bad 133c 6418 b3bd c78a c13b
00000050: b296 3abd 6572 80bd aeba 8c3d 1516 993b
00000060: f43c b4bb 81cf b73d c68c 3cbc 1783 b13c
00000070: e089 b5bc 72c7 143d f1bd 33bc 659b 02bd
00000080: d81b 50bc 8c20 14bd 84cb 953d f214 40bc
00000090: 4798 8c3d 260f 1f3d 543a 7bbd 7a21 ff3c
000000a0: 3b3a 13bc fcfe a6bc 9eff 10bc 8382 aa3d
000000b0: 5606 db3d f699 2db9 4c50 a73d bf06 8c3d
000000c0: f92d 0d3d ad3d fc3b 33ab 17bb 57ca 2e3b
000000d0: 32c8 5fbb 830a 2a3c e201 89bd 0834 b7bd
000000e0: 0825 353d a000 c1bb 458e 9bbd 1adb 91b8
000000f0: 7cd0 fd3c 86b4 58bb a5df 873d f90c 293c

fc.weight f4 [2, 64]
0.313006 0.30647364 0.021447537 0.34225926 0.33710793 0.9901123 -0.7942174 0.7239494
-0.042689793 0.20644821 0.53958094 0.24768125 -0.91744655 0.29013288 0.80401623 0.32613364
-0.7563795 0.31457576 0.00550625 0.32369763 0.35445017 0.036794685 -0.3802329 0.24540426
0.34984857 0.24855901 -0.029260727 0.30551594 0.30390075 -0.8726213 0.35680842 0.28477567
0.70594156 0.92537093 -0.5136928 0.22956216 0.18612881 -0.5195526 1.0326128 0.33772653
-0.5163541 -0.35207605 0.3041341 0.86254156 -0.7400737 -0.86498725 0.16699119 -0.47485453
-0.4568309 -0.5942176 0.26164547 0.26867142 0.29003146 0.16737689 -0.07565293 -0.59162545
-0.85157585 0.3434281 0.29846764 0.2296889 -0.90318614 0.320397 -0.40097177 0.3828284
-0.21594211 -0.2943539 0.029278602 -0.25256982 -0.25374746 -1.000606 0.7895385 -0.61463827
-0.05979943 -0.32139972 -0.44652596 -0.26641235 0.9857785 -0.24372122 -0.6944328 -0.21933196
0.8466949 -0.23088472 -0.05637687 -0.34270206 -0.17408511 0.02565561 0.47135746 -0.30438125
-0.243782 -0.2874723 -0.03142551 -0.31159264 -0.24396825 0.9522907 -0.18085712 -0.25786346
-0.79459256 -0.88003784 0.4522845 -0.32065904 -0.32823303 0.36654088 -1.1487354 -0.20718312
0.5080282 0.35504034 -0.26053268 -1.0604231 0.54059315 0.7810784 -0.2744662 0.62537897
0.3198696 0.63970226 -0.35101113 -0.3089499 -0.2442952 -0.33773652 0.06158057 0.6983798
0.8196552 -0.18974389 -0.3474742 -0.3261211 0.9486743 -0.25368348 0.46562898 -0.18268046
00000000: 5342 a03e 1dea 9c3e bfb2 af3c 9b3c af3e
00000010: 6999 ac3e 0078 7d3f d551 4bbf bf54 393f
00000020: 7edb 2ebd 2967 533e fa21 0a3f 27a0 7d3e
00000030: c7dd 6abf 4c8c 943e 02d4 4d3f fdfa a63e
00000040: 16a2 41bf 1310 a13e c66d b43b b2bb a53e
00000050: 7e7a b53e 06b6 163d e3ad c2be 414b 7b3e
00000060: 5a1f b33e 4186 7e3e 31b4 efbc 966c 9c3e
00000070: e198 9b3e 1c64 5fbf 98af b63e 1ece 913e
00000080: 96b8 343f 1ce5 6c3f 5f81 03bf 5812 6b3e
00000090: 8d98 3e3e 6601 05bf a82c 843f 7eea ac3e
000000a0: c82f 04bf 5043 b4be 77b7 9b3e 86cf 5c3f
000000b0: 7875 3dbf ce6f 5dbf bdff 2a3e 2220 f3be
000000c0: bde5 e9be a51e 18bf 65f6 853e 4d8f 893e
000000d0: 017f 943e d964 2b3e ecef 9abd c474 17bf
000000e0: e000 5abf cfd5 af3e c0d0 983e 9133 6b3e
000000f0: 3537 67bf 130b a43e 2c4c cdbe 1602 c43e
00000100: ee1f 5dbe 8eb5 96be aed9 ef3c d550 81be
00000110: 30eb 81be db13 80bf 321f 4a3f ef58 1dbf
00000120: 3ff0 74bd 818e a4be 0d9f e4be 3367 88be
00000130: fb5b 7c3f 0e92 79be 59c6 31bf 8f98 60be
00000140: ffc0 583f 0b6d 6cbe 6feb 66bd a576 afbe
00000150: 5e43 32be b72b d23c c455 f13e dcd7 9bbe
00000160: fda1 79be 922f 93be 09b8 00bd 1289 9fbe
00000170: d0d2 79be 53c9 733f 9c32 39be ae06 84be
00000180: 6b6a 4bbf 294a 61bf d591 e73e 6c2d a4be
00000190: 290e a8be 3fab bb3e c309 93bf d027 54be
000001a0: 230e 023f d9c7 b53e 8a64 85be f2bb 87bf
000001b0: 5064 0a3f c1f4 473f d586 8cbe d618 203f
000001c0: f3c5 a33e 87c3 233f bbb7 b3be ae2e 9ebe
000001d0: 8528 7abe cdeb acbe e83b 7c3d 05c9 323f
000001e0: ecd4 513f 394c 42be 23e8 b1be 58f9 a6be
000001f0: 52dc 723f cde2 81be ec66 ee3e 9610 3bbe

fc.bias f4 [2]
-0.068267345 0.03841967
00000000: c0cf 8bbd f25d 1d3d
